model/keypoint_classifier/keypoint_classifier.tflite (tflite, 6512 bytes, 6 tensors)

dense_8/bias f4 [6]
0.060023572 -0.44948888 0.1509522 -0.16533002 0.24925685 0.64321816
00000000: 47db 753d 6823 e6be 3793 1a3e 464c 29be
00000010: 303d 7f3e f2a9 243f

dense_7/bias f4 [10]
-0.12804212 -0.2781888 -0.22423124 1.0714971 0.13157153 -0.35501108 0.38678905 0.32607463
0.6057256 0.5174833
00000000: 791d 03be c36e 8ebe e09c 65be d126 893f
00000010: b0ba 063e 03c4 b5be 3709 c63e 41f3 a63e
00000020: d510 1b3f c979 043f

dense_6/bias f4 [20]
-0.26935768 -0.78756547 -0.5185312 -0.5668729 -0.3754897 0.3827731 -0.56645644 -0.13391533
-0.69629866 -0.023159195 -0.85748273 0.07823091 -0.41258594 -0.42923453 0.11847654 -0.7368542
-0.62245196 -0.8500825 -0.7478552 -0.5797
00000000: 40e9 89be e49d 49bf 76be 04bf 951e 11bf
00000010: 3040 c0be d6fa c33e 4a03 11bf 1a21 09be
00000020: a140 32bf 5ab8 bdbc fd83 5bbf 8737 a03d
00000030: 773e d3be a1c4 dbbe d4a3 f23d 7aa2 3cbf
00000040: 0359 1fbf 029f 59bf 7073 3fbf 3867 14bf

sequential_2/dense_6/MatMul f4 [20, 42]
0.119600534 0.17709363 -0.13430122 0.5565131 -0.15661396 0.22131553 0.16215442 0.07375121
0.24291086 0.13751546 -0.11176647 0.12449333 -0.03704106 -0.11480395 0.51865304 -0.4595229
0.7655622 -1.4255067 0.034920756 0.16273212 -0.23347828 -0.040887937 0.11982274 0.019091459
0.14890815 0.03592921 0.03333658 0.0947424 -0.32693958 -0.0063881697 -0.2426485 0.023451254
-0.008657919 0.04945375 0.18638638 0.07849405 -0.49041978 -0.027481362 -0.32575515 -0.018905347
-0.20593722 0.050866336 0.014287531 0.30546916 0.34124297 -0.6496121 0.6750178 -0.52935696
0.46954975 -0.26485825 0.518664 -0.26972255 0.15749706 -0.1003581 -0.06569715 -0.15473276
-0.22914 0.10978586 -0.28614813 0.28569835 0.35605818 -0.23535188 0.01429345 -0.21158808
0.119607456 -0.003995223 0.27149037 -0.0014311604 0.31785205 -0.178415 -0.21314757 -0.29099172
-0.13630275 0.058441237 0.37223405 -0.020435145 0.10935566 -0.08532896 -0.029239599 -0.1488965
0.046207592 0.1886333 -0.18745199 0.11231767 0.2820428 0.2756937 -0.7817069 -0.08217361
-0.34684527 -0.11229282 -0.30291694 -0.07716689 -0.18366057 0.0037933565 -0.9475932 -0.10761539
-0.48983273 -0.119852774 -0.3274273 -0.1429161 -0.3474248 -0.0662793 -0.47417098 -0.037189476
-0.03108234 -0.08995629 0.08233201 0.17498296 0.3197227 0.25677654 0.06009882 -0.11297831
0.096151724 0.080292486 0.33841845 0.24920958 0.5324452 0.29636124 0.34015438 -0.0593195
0.49569315 -0.016455075 0.4431594 0.28724986 0.6122786 0.3432993 -0.26344416 0.1658381
-0.1001878 0.29283872 0.16742693 0.13301457 0.2435996 0.09646236 0.1667969 0.120646484
0.20569818 0.13077796 0.06482622 0.02650672 -0.17281698 -0.0954353 -0.15777275 -0.13227153
0.2293284 0.16940168 0.03805106 -0.056535278 0.018791346 -0.30748525 0.030540703 -0.55216295
0.47727668 0.22127658 -0.025479676 -0.036536727 -0.144673 -0.6433751 -0.031448927 -0.95709705
0.21918663 0.11440622 -0.08406505 -0.09010215 -0.35990408 -0.64394414 -0.19441213 -1.0255793
-0.23156518 0.11256832 0.64169794 1.9600023 0.30499113 0.8946087 0.06445698 0.4282346
-0.30695993 0.3322783 -0.09070159 0.6060592 -0.03585252 0.2248263 0.06984959 -0.05835656
0.107636884 -0.29006553 -0.094714 0.22660393 -0.109654725 0.12082166 0.09786676 0.08346528
0.21588348 0.09605176 -0.07105493 -0.3945464 -0.06482226 -0.08364053 0.1508463 0.03984803
0.18207915 0.09672441 -0.33463708 -0.7551902 -0.04130011 -0.58530474 -0.2148744 -0.13617274
-0.18739034 -0.030734 0.25980824 -0.07503708 0.093804605 -1.0308677 -0.14617814 -0.6932412
-0.18843834 -0.64551616 -0.21094714 -0.4664983 -0.27532086 -0.23085903 -0.025540177 -0.26727661
0.20537655 -0.092300095 0.112581015 -0.09834507 -0.33335528 -0.24213652 -0.43042952 0.073572494
-0.056856997 0.3136746 0.31597152 0.4057861 -0.24592304 0.0824876 -0.7627755 0.12075671
-0.09006878 0.3260035 0.27632156 0.45623213 -0.37958995 0.11329417 -0.40199018 0.21991041
-0.5274947 0.4486673 0.0051792674 0.46763146 -0.050498128 0.015132695 0.9559246 0.096002966
00000000: 20f1 f43d 0858 353e 4286 09be a477 0e3f
00000010: 695f 20be 8aa0 623e cf0b 263e e00a 973d
00000020: a0bd 783e dad0 0c3e d2e5 e4bd 5cf6 fe3d
00000030: 5eb8 17bd 551e ebbd 72c6 043f 9646 ebbe
00000040: e2fb 433f 0177 b6bf 1109 0f3d 40a3 263e
00000050: ee14 6fbe 1c7a 27bd a065 f53d b165 9c3c
00000060: 617b 183e 822a 133d f08b 083d 4e08 c23d
00000070: a064 a7be da53 d1bb d978 78be d81c c03c
00000080: f2d9 0dbc 0490 4a3d 12dc 3e3e 7dc1 a03d
00000090: 4d18 fbbe 9820 e1bc 61c9 a6be 63df 9abc
000000a0: 35e1 52be 3859 503d 4016 6a3c 7466 9c3e
000000b0: 66b7 ae3e fb4c 26bf f7cd 2c3f f083 07bf
000000c0: d368 f03e 809b 87be 2ac7 043f 1319 8abe
000000d0: e946 213e 8c88 cdbd 3a8c 86bd 4472 1ebe
000000e0: ada3 6abe 69d7 e03d 0282 92be 0e47 923e
000000f0: 424d b63e 1500 71be 132f 6a3c 8caa 58be
00000100: c1f4 f43d 5cea 82bb c900 8b3e c695 bbba
00000110: 81bd a23e 6cb2 36be 5b43 5abe defc 94be
00000120: f392 0bbe 1460 6f3d 7695 be3e 9b67 a7bc
00000130: dcf5 df3d f3c0 aebd e287 efbc 5378 18be
00000140: 2c44 3d3d 1629 413e 6af3 3fbe ce06 e63d
00000150: ea67 903e ba27 8d3e f21d 48bf a34a a8bd
00000160: b495 b1be c7f9 e5bd ee17 9bbe ad09 9ebd
00000170: 8411 3cbe f699 783b 7895 72bf 7565 dcbd
00000180: 5bcb fabe 5f75 f5bd 8da4 a7be 9958 12be
00000190: aae1 b1be 71bd 87bd 8ac6 f2be fe53 18bd
000001a0: 64a0 febc 013b b8bd af9d a83d bc2e 333e
000001b0: b2b2 a33e 3778 833e 2e2a 763d 2c61 e7bd
000001c0: 32eb c43d 6370 a43d 2f45 ad3e cc30 7f3e
000001d0: 544e 083f a9bc 973e b728 ae3e 01f9 72bd
000001e0: 7ecb fd3e cbcc 86bc cae5 e23e 6a12 933e
000001f0: 4abe 1c3f edc4 af3e 27e2 86be 76d1 293e
00000200: 432f cdbd f5ee 953e f771 2b3e f934 083e
00000210: 2c72 793e 0f8e c53d cecc 2a3e 8115 f73d
00000220: 8ba2 523e a8ea 053e 9cc3 843d 9f24 d93c
00000230: eff6 30be 9573 c3bd 2e8f 21be 3072 07be
00000240: 10d5 6a3e a277 2d3e 6edb 1b3d 8991 67bd
00000250: 4ff0 993c b56e 9dbe 7f30 fa3c 8d5a 0dbf
00000260: 9c5d f43e 5496 623e c1ba d0bc 89a7 15bd
00000270: 2925 14be 3bb4 24bf 97d0 00bd 5004 75bf
00000280: 7672 603e cf4d ea3d 4c2a acbd 7a87 b8bd
00000290: 5945 b8be 86d9 24bf f913 47be 2f46 83bf
000002a0: 6c1f 6dbe 388a e63d 5146 243f 5be1 fa3f
000002b0: cc27 9c3e 1305 653f 0502 843d 9141 db3e
000002c0: da29 9dbe 6220 aa3e c1c1 b9bd b226 1b3f
000002d0: 18da 12bd de38 663e 4d0d 8f3d 4a07 6fbd
000002e0: ba70 dc3d 7883 94be 6af9 c1bd dc0a 683e
000002f0: a892 e0bd 5971 f73d 5e6e c83d d8ef aa3d
00000300: 8f10 5d3e c9b6 c43d 3f85 91bd fc01 cabe
00000310: 88c1 84bd ba4b abbd 7477 1a3e b037 233d
00000320: f572 3a3e 7317 c63d 8d55 abbe 2554 41bf
00000330: 4e2a 29bd 88d6 15bf 0908 5cbe de70 0bbe
00000340: 41e3 3fbe dfc5 fbbc 9605 853e 0aad 99bd
00000350: a11c c03d 79f3 83bf b9af 15be 4178 31bf
00000360: fbf5 40be 8c40 25bf 8702 58be ddd8 eebe
00000370: dbf6 8cbe 4f66 6cbe a239 d1bc 7bd8 88be
00000380: 3b4e 523e d507 bdbd e090 e63d 2469 c9bd
00000390: 8bad aabe a3f2 77be 4261 dcbe 2dad 963d
000003a0: e2e2 68bd f599 a03e 05c7 a13e 32c3 cf3e
000003b0: 40d3 7bbe 42ef a83d 4145 43bf 4b4f f73d
000003c0: fb75 b8bd eee9 a63e 057a 8d3e 4297 e93e
000003d0: 9d59 c2be c606 e83d a8d1 cdbe 3230 613e
000003e0: e509 07bf b8b7 e53e d8b6 a93b 646d ef3e
000003f0: 20d7 4ebd 20ef 773c 79b7 743f 349d c43d

sequential_2/dense_7/MatMul f4 [10, 20]
0.96177506 0.48236078 0.377604 0.917611 -0.054312866 0.39332157 -0.20548692 0.36002934
-0.22185118 -0.03301741 1.3052202 0.26230326 -0.19622731 0.50335544 -0.10075785 1.4157172
-0.11060402 1.4552096 1.2373644 -0.17644691 -0.35450947 -0.16996557 0.6292535 -0.05724977
-0.039124582 -0.30642965 -0.053442355 0.36635903 0.25771913 -0.6382597 -0.11921634 -0.019672638
-0.7656781 0.7455153 0.417063 0.3708323 -0.096501805 0.32891303 0.010074392 -0.013541439
0.052963298 0.4264133 0.021606829 -0.047611814 0.07929604 0.56929284 0.27473876 0.24683446
0.7270574 -0.66434395 0.90513253 0.52681106 0.48244852 0.28715342 -0.3221198 -0.3454111
0.21047181 0.18501139 0.16833702 -0.36513683 0.38727605 -0.25901526 -0.01151757 -0.48948345
0.16269828 0.27691907 0.32944676 0.3829213 0.08441219 0.34813902 -0.9102282 0.4134008
0.25328246 0.14246371 0.1747926 -0.52813524 -0.7385786 -0.9129395 -0.5463172 0.0798828
0.08138262 0.7999676 0.79488677 -0.14562652 0.0056766486 0.739715 -0.008486874 0.046874356
1.147126 -0.18201275 0.5854206 0.914553 1.5196882 0.67597127 0.19892149 0.4205789
-0.08039521 -0.11779115 0.066152774 0.048591692 0.7463515 0.5949448 0.45842972 0.49489436
0.348511 -0.23121396 0.59428245 -0.019064749 0.2897495 0.7893962 0.10071349 0.22688164
0.11228185 0.5193261 0.23419529 0.6011361 0.18878058 0.31346652 0.08343781 0.46414304
-0.4392819 -0.81347185 0.5213263 0.24093232 1.094631 -0.0032013394 1.0996473 0.95365894
0.26640838 -0.15687989 0.08175291 0.06506983 0.029322198 0.35647207 0.59067535 0.18822709
1.421477 -0.011651561 0.29380843 0.5768573 0.77624774 0.5838869 0.88705313 0.023177113
0.6051789 0.8556199 0.64456016 0.23274931 0.75174904 0.66622543 -0.19207473 0.6681192
0.64789027 0.96343756 0.85368764 0.09021019 -0.41893584 0.058949947 0.1275558 0.73332864
0.021589609 -0.4545059 0.47946793 0.6720999 0.064482145 0.19611599 0.0063507394 0.14443581
-0.12233802 1.0229496 -0.30363992 0.024172626 -0.13985878 0.3300207 0.28965658 0.064131886
0.13914853 -0.4789669 0.22857279 0.16947114 0.2619756 0.20763573 -0.31456995 -0.95450276
-0.07114412 0.22339442 -0.016256334 -0.26776865 0.0025937934 0.26166645 0.07388503 0.09115577
-1.1709974 -0.16849345 -1.039743 0.16245982 -0.07032336 0.11165265 0.13903664 0.16265628
00000000: e436 763f fef7 f63e 5055 c13e 8ee8 6a3f
00000010: 2b77 5ebd 7261 c93e 2a6b 52be c455 b83e
00000020: f52c 63be 443d 07bd 7511 a73f 9d4c 863e
00000030: d0ef 48be e7db 003f 225a cebd 3936 b53f
00000040: 5c84 e2bd 4f44 ba3f f561 9e3f 80ae 34be
00000050: 4482 b5be 740b 2ebe c216 213f bc7e 6abd
00000060: 1941 20bd 59e4 9cbe 5fe6 5abd 6993 bb3e
00000070: c3f3 833e fd64 23bf b227 f4bd 8328 a1bc
00000080: 7b03 44bf 17da 3e3f 4889 d53e bbdd bd3e
00000090: bda2 c5bd 4a67 a83e 100f 253c e9dc 5dbc
000000a0: 0bf0 583d d852 da3e ce00 b13c 9b04 43bd
000000b0: f665 a23d 2dbd 113f 8faa 8c3e 2cc2 7c3e
000000c0: 6f20 3a3f 7212 2abf c4b6 673f 17dd 063f
000000d0: 7e03 f73e c605 933e e3ec a4be b9d9 b0be
000000e0: ec85 573e a073 3d3e 8a60 2c3e 37f3 babe
000000f0: 0c49 c63e a69d 84be 31b4 3cbc 939d fabe
00000100: 619a 263e 56c8 8d3e 3fad a83e 430e c43e
00000110: 4ce0 ac3d 473f b23e b704 69bf 45a9 d33e
00000120: 3dae 813e 02e2 113e d5fc 323e df33 07bf
00000130: 7d13 3dbf 67b6 69bf 72db 0bbf 9899 a33d
00000140: eeab a63d adca 4c3f b37d 4b3f 1e1f 15be
00000150: 2e03 ba3b f65d 3d3f 880c 0bbc 53ff 3f3d
00000160: 06d5 923f 8d61 3abe 20de 153f 2520 6a3f
00000170: 2585 c23f 740c 2d3f 13b2 4b3e 1e56 d73e
00000180: 3ea6 a4bd 7d3c f1bd 1b7b 873d 1508 473d
00000190: e410 3f3f 4d4e 183f 4db7 ea3e cb62 fd3e
000001a0: 0970 b23e 5ac3 6cbe e522 183f ad2d 9cbc
000001b0: 0c5a 943e df15 4a3f e042 ce3d a953 683e
000001c0: 07f4 e53d 8ef2 043f e4d0 6f3e 0ee4 193f
000001d0: b24f 413e af7e a03e 71e1 aa3d 28a4 ed3e
000001e0: 8fe9 e0be b13f 50bf a475 053f f6b6 763e
000001f0: de1c 8c3f 90cd 51bb 3ec1 8c3f fe22 743f
00000200: ae66 883e 1fa5 20be 126e a73d 5543 853d
00000210: 1b35 f03c 8283 b63e 8036 173f 9abe 403e
00000220: f5f2 b53f 30e6 3ebc 0f6e 963e ecac 133f
00000230: 2cb8 463f 9d79 153f ea15 633f eedd bd3c
00000240: 01ed 1a3f e809 5b3f e501 253f d655 6e3e
00000250: a072 403f c08d 2a3f 3daf 44be dc09 2b3f
00000260: 23dc 253f d8a3 763f 468b 5a3f 1fc0 b83d
00000270: c27e d6be 8075 713d fd9d 023e 6dbb 3b3f
00000280: b1dc b03c ffb4 e8be d27c f53e bd0e 2c3f
00000290: 370f 843d a1d2 483e dd19 d03b fbe6 133e
000002a0: 5b8c fabd 03f0 823f b176 9bbe ac05 c63c
000002b0: 2437 0fbe 79f8 a83e de4d 943e 9457 833d
000002c0: f47c 0e3e 263b f5be fc0e 6a3e d889 2d3e
000002d0: aa21 863e 769e 543e 500f a1be 4b5a 74bf
000002e0: 02b4 91bd 82c1 643e 012c 85bc f918 89be
000002f0: a2fc 293b 25f9 853e 0951 973d e0af ba3d
00000300: 3ee3 95bf 8c89 2cbe 4c16 85bf de5b 263e
00000310: b205 90bd 25aa e43d 9f5f 0e3e 5e8f 263e

sequential_2/dense_8/MatMul f4 [6, 10]
0.3901047 -0.67055863 0.16627309 -0.60037297 -0.276867 0.41281307 -0.8359887 -0.43448594
0.45257983 1.141715 -0.021123547 -0.357987 0.6744278 -0.7341993 0.4529454 0.5620583
0.57127964 0.70783305 -0.47862706 -0.3471741 -0.17499869 0.37016597 -0.27086973 0.6480548
0.20135638 0.0521118 -0.11733635 0.7875577 0.31734198 -0.4849366 0.29610753 0.7918404
0.54636174 -1.146234 0.018810412 -0.22321267 0.6250941 -1.5281645 0.22772866 0.2237416
-1.1985686 -1.0440743 0.7756718 0.8514995 0.7582211 -0.97032565 -1.8217115 0.18549806
-1.0600866 0.9575563 -1.8752146 -1.2488183 -0.9546129 0.3262571 -2.2288804 -0.21186386
0.9622155 0.100081526 0.89237803 -1.8361775
00000000: cebb c73e bba9 2bbf 7e43 2a3e 0bb2 19bf
00000010: 83c1 8dbe 3c5c d33e 5b03 56bf f174 debe
00000020: 8bb8 e73e b823 923f 4a0b adbc 124a b7be
00000030: 4da7 2c3f 7cf4 3bbf 76e8 e73e 0ee3 0f3f
00000040: 623f 123f 8c34 353f 9b0e f5be cec0 b1be
00000050: db32 33be 6586 bd3e 70af 8abe ebe6 253f
00000060: 5e30 4e3e 2f73 553d 0a4e f0bd 629d 493f
00000070: a67a a23e 9c49 f8be 689b 973e 0db6 4a3f
00000080: 5dde 0b3f ccb7 92bf 4b18 9a3c dd91 64be
00000090: 2b06 203f e59a c3bf b431 693e 851c 653e
000000a0: b26a 99bf 3aa4 85bf 6d92 463f dffb 593f
000000b0: c71a 423f 4367 78bf d82d e9bf 34f3 3d3e
000000c0: ebb0 87bf 6922 753f 0807 f0bf 47d9 9fbf
000000d0: 8361 74bf 2c0b a73e faa5 0ec0 d7f2 58be
000000e0: c153 763f 8bf7 cc3d e372 643f dd07 ebbf
