model/keypoint_classifier/keypoint_classifier.tflite (tflite, 6384 bytes, 6 tensors)

dense_8/bias f4 [3]
0	0x3d97dd28	0.07415229
1	0x3d2fcaca	0.042918004
2	0xbe32e076	-0.17468438

dense_7/bias f4 [10]
0	0x3e25fca4	0.16209656
1	0x3f0c8e02	0.54904187
2	0x3e998738	0.29985976
3	0x3f1f7159	0.6228233
4	0x3edeb65a	0.43498498
5	0xbaf00fbb	-0.0018315235
6	0x3e26a945	0.16275509
7	0x3e3cc7fe	0.18435666
8	0x3ed87236	0.42274636
9	0x3eac4958	0.33649707

dense_6/bias f4 [20]
0	0x3d090d86	0.033460163
1	0x3e9b432c	0.30324686
2	0x3e36eafa	0.17863074
3	0xbe876617	-0.26445076
4	0xbedb018c	-0.42774618
5	0xbeea4d6f	-0.45762202
6	0x3e717eea	0.2358357
7	0x3eac9a1f	0.33711335
8	0x3e3d17d6	0.18466124
9	0x3e3c2b41	0.18375875
10	0xbefd6d37	-0.49497387
11	0x3e8a36af	0.26994845
12	0x3e763cdb	0.24046652
13	0x3ec70db9	0.38877657
14	0xbce4194f	-0.0278441
15	0x3e93da12	0.28877312
16	0xbf001558	-0.5003257
17	0x3e96184b	0.2931541
18	0x3e6fedd8	0.23430574
19	0xbecbefe8	-0.3983147

sequential_2/dense_6/MatMul f4 [20, 42]
0	0xbe5b774a	-0.21432224
1	0xbbf11740	-0.007357508
2	0xbe2dbea4	-0.16967255
3	0xbe9fa93e	-0.3118381
4	0x3ddc1a2b	0.10747179
5	0xbe90f274	-0.28309977
6	0x3d2fd248	0.04292515
7	0xbe082859	-0.13296641
8	0xbe14e0ce	-0.14538881
9	0xbe2f9a4e	-0.17148706
10	0xbd2f3827	-0.04277816
11	0xbedece49	-0.43516758
12	0x3e37c2b0	0.17945361
13	0xbec9f393	-0.39443645
14	0xbe0f7746	-0.14010343
15	0xbda62fdd	-0.08114598
16	0x3d3ec4f4	0.046574548
17	0xbd188a03	-0.037240993
18	0x3e1e9c0f	0.15489219
19	0xbcf37d27	-0.029722763
20	0xbea15374	-0.31508982
21	0xbd874569	-0.06605036
22	0xbe601a5d	-0.21885057
23	0x3e4b1eef	0.19836019
24	0x3e0b7d17	0.13621937
25	0x3e0e404b	0.13891713
26	0xbea52b05	-0.32259384
27	0x3e9ed3f3	0.3102108
28	0x3d8f2a89	0.06990535
29	0x3e77ff34	0.24218446
30	0xbba21231	-0.0049460162
31	0x3e5c12ed	0.21491595
32	0xbebc7cfb	-0.36814103
33	0x3d875965	0.066088475
34	0x3e471975	0.19443305
35	0x3e89c3aa	0.26907092
36	0xba847e13	-0.0010108374
37	0x3ef7d322	0.4840327
38	0xbc3c984b	-0.011510919
39	0x3e733c83	0.23753552
40	0xbdced78b	-0.10099705
41	0x3e85c5be	0.26127428
42	0xbcc0e5e0	-0.023547113
43	0xbe56f9d4	-0.2099374
44	0xbe2b178f	-0.16708206
45	0x3eb8b3b3	0.360746
46	0xbe837832	-0.2567764
47	0x3ed933db	0.42422375
48	0x3c8d12b9	0.017220842
49	0x3ef06028	0.4694836
50	0x3e56c62d	0.20974036
51	0x3e0ade9d	0.13561483
52	0xbdfc6d0e	-0.12325488
53	0x3ec81659	0.3907955
54	0xbcdc6ae4	-0.026906438
55	0x3f0eb53e	0.55745304
56	0x3e6b9cf1	0.23009087
57	0x3e57e672	0.21084002
58	0x3e819c79	0.25314692
59	0x3e43b401	0.19111635
60	0x3dc786c5	0.09742502
61	0x3eb84258	0.35988116
62	0xbe1e7a23	-0.15476279
63	0x3efdfc81	0.49606708
64	0xba2a23d3	-0.00064903236
65	0x3ed6c6ac	0.4194845
66	0xbe8115b7	-0.2521188
67	0x3ed83f18	0.42235637
68	0x3d90588b	0.07048138
69	0xbe14b39f	-0.14521645
70	0x3e1bdf01	0.15221788
71	0x3e49c54d	0.1970417
72	0x3e874841	0.26422313
73	0x3ec86784	0.39141476
74	0x3e5e6f20	0.21722078
75	0x3ea43912	0.3207479
76	0xbbaa49d3	-0.005196789
77	0xbf141a31	-0.57852465
78	0xbe434627	-0.1906973
79	0xbe1cc320	-0.1530881
80	0xbe7ccc2d	-0.24687262
81	0xbe4f99c1	-0.20273496
82	0xbe91b03f	-0.28454778
83	0xbdec9fdd	-0.11553929
84	0xbd941c8a	-0.07232006
85	0xbe53fade	-0.20701167
86	0xbe048cb6	-0.12944302
87	0xbf0b84ae	-0.5449933
88	0xbb73cfed	-0.003720279
89	0xbf128678	-0.57236433
90	0x3d9f1dd3	0.077693604
91	0xbdd7b85d	-0.105332114
92	0xbd6f248d	-0.058384467
93	0xbdf27a46	-0.11839728
94	0xbdddbbb9	-0.10826821
95	0xbeb0a0ab	-0.3449758
96	0x3e74d0ed	0.23907824
97	0xbe9436e7	-0.28948137
98	0x3dec5872	0.11540307
99	0xba7d83a2	-0.0009670799
100	0xbe85ae07	-0.26109335
101	0x3da1367d	0.07871721
102	0xbcba7e2f	-0.022765247
103	0xbeb51c67	-0.35373232
104	0xbe1da172	-0.15393618
105	0x3e212ebb	0.15740483
106	0xbe92c761	-0.2866774
107	0x3daaba0d	0.083362676
108	0x3dae6127	0.08514624
109	0x3cd2e7a0	0.025745213
110	0xbe0f9081	-0.14019968
111	0x3e31a012	0.17346218
112	0xbe7285ba	-0.23683825
113	0x3e1a8289	0.15088858
114	0xbe9e8c5e	-0.30966467
115	0x3e788d93	0.24272756
116	0x3d1095f5	0.03529926
117	0x3e9d0042	0.3066426
118	0xbdf11dc6	-0.11773257
119	0x3e2f08b4	0.17093164
120	0x3dccdfc2	0.10003616
121	0x3f2a2d13	0.6647503
122	0xbddce89e	-0.10786556
123	0x3eddc496	0.43314046
124	0x3e8ede4b	0.2790397
125	0x3f1f2e2e	0.6217984
126	0x3e7c4668	0.24636233
127	0x3c813a60	0.015774906
128	0x3cab6378	0.020921454
129	0x3f19aff2	0.60034096
130	0x3e478b67	0.19486772
131	0x3ec36bcb	0.38168177
132	0x3e21c654	0.15798312
133	0x3e950afc	0.29109943
134	0xbcee9b0a	-0.029126663
135	0x3e576712	0.21035412
136	0xbba2d6fe	-0.0049694767
137	0x3e555b05	0.20835502
138	0xbdba39db	-0.09093066
139	0xbe1b5ecc	-0.15172881
140	0x3dd29f19	0.10284252
141	0xbe5f6acf	-0.21818088
142	0x3d92b1fe	0.071628556
143	0xbe393c72	-0.18089464
144	0xbd557b46	-0.052119516
145	0x3e1e607b	0.15466492
146	0xbde8777f	-0.11350917
147	0xbdb2e81b	-0.08735677
148	0xbe3b3609	-0.18282332
149	0xbd62eb9c	-0.055400476
150	0xbd78daac	-0.060755417
151	0xbe8feae3	-0.28108892
152	0x3dd6fb49	0.104971476
153	0xbe1b3a2a	-0.15158907
154	0x3d7464b5	0.059666354
155	0xbef40e03	-0.4766694
156	0xbd03e599	-0.032201383
157	0xbe3dee44	-0.18547922
158	0xbd124c13	-0.03571708
159	0xbe2adf4a	-0.1668674
160	0x3d07ff11	0.033202235
161	0xbee614e7	-0.44937822
162	0x3dd4392d	0.10362468
163	0xbf0d7633	-0.5525848
164	0xbdda47c9	-0.10658223
165	0xbe835519	-0.25650862
166	0x3e735eb4	0.23766595
167	0xbea1b9c5	-0.31587043
168	0xbe52ba37	-0.20578848
169	0xbe038bf1	-0.12846352
170	0x3ebb99a6	0.36640662
171	0x3ed1825e	0.40919775
172	0x3e568735	0.20950015
173	0x3e0e339f	0.1388688
174	0x3d9fd275	0.07803813
175	0x3e2e61cf	0.17029499
176	0xbc8455a5	-0.01615412
177	0x3e425576	0.18977913
178	0xbe6ef387	-0.23335086
179	0x3e5babd1	0.21452262
180	0x3dd8ddfc	0.10589215
181	0xbc6d24a2	-0.014474066
182	0xbdae0a01	-0.08498002
183	0xbe2893f8	-0.16462696
184	0xbe25731e	-0.16157195
185	0xbe687ab0	-0.22703052
186	0x3e0d679a	0.13809052
187	0xbdda27ec	-0.10652146
188	0x3bcc1f5e	0.006229325
189	0xbeaac6a0	-0.33354664
190	0x3e4412c8	0.1914779
191	0xbecd070c	-0.4004444
192	0xbe2c43ee	-0.16822788
193	0xbeaa7335	-0.3329102
194	0x3d3598e2	0.044335254
195	0xbe8406c9	-0.25786427
196	0x3da2775f	0.079329245
197	0xbe84449f	-0.25833604
198	0x3c83fdcf	0.016112236
199	0xbebac05d	-0.36474887
200	0x3e69d022	0.22833303
201	0xbef6477b	-0.4810141
202	0x3e2884a7	0.16456853
203	0xbccdee8f	-0.025138168
204	0x3d1a4ea7	0.037672665
205	0xbea7c22d	-0.32765332
206	0xbce1cb12	-0.027562652
207	0xbdb34ef7	-0.08755296
208	0xbe461dfa	-0.19347373
209	0xbed61664	-0.41813958
210	0xbd43b1c0	-0.047776937
211	0xbd97cb9a	-0.07411881
212	0x3e9e7530	0.30948782
213	0x3ec47bad	0.38375607
214	0x3cae02fe	0.021241661
215	0x3e84cbbe	0.25936693
216	0xbc370229	-0.011169949
217	0x3cc270d1	0.023735436
218	0x3ddb5730	0.10709989
219	0x3dae3ba0	0.08507466
220	0xbe358e5d	-0.17730089
221	0x3e16dc1e	0.14732406
222	0xbe1d2b28	-0.15348494
223	0xbc814979	-0.015782105
224	0x3937e9cc	0.00017539336
225	0xbcb34394	-0.02188281
226	0x3e7264e9	0.23671307
227	0xbe83d874	-0.25751078
228	0xbe0d2331	-0.13782956
229	0x3e0e3c3d	0.13890167
230	0xbcc8a509	-0.024492757
231	0xbdb2fac5	-0.08739237
232	0x3dd9fded	0.106441356
233	0xbe70a3c1	-0.23499967
234	0xbd3fcb99	-0.046825025
235	0xbeb2ca41	-0.34919932
236	0x3e5ccd15	0.21562608
237	0xbe2e74d1	-0.1703675
238	0xbe00cbc5	-0.12577732
239	0xbe9d3995	-0.30707994
240	0x3e3580d2	0.17724922
241	0xbe3a4573	-0.18190555
242	0xbddd9561	-0.108195074
243	0xbee6e1c3	-0.45094118
244	0x3e5be4c4	0.21473986
245	0xbed65934	-0.41864932
246	0xbe3010a4	-0.17193848
247	0xbd7a6772	-0.06113381
248	0x3e2db3f6	0.16963181
249	0xbe64410c	-0.22290438
250	0x3e7cfc2b	0.2470557
251	0xbee8d364	-0.45473778
252	0xbced9950	-0.02900377
253	0xbdb0c472	-0.08631219
254	0xbe223e78	-0.15844142
255	0xbf220d18	-0.6330123

sequential_2/dense_7/MatMul f4 [10, 20]
0	0x3efa3296	0.4886672
1	0x3e990ec7	0.29894087
2	0x3f25419a	0.64553225
3	0xbde6b33d	-0.11264656
4	0xbd7780ce	-0.060425572
5	0xbe55b870	-0.20871139
6	0x3e6082f0	0.21924949
7	0xbdf54b5e	-0.11977266
8	0x3ee2fe4d	0.4433464
9	0xbeb83a38	-0.35981917
10	0xbeb55f0c	-0.35424078
11	0x3dc66634	0.096874624
12	0xbd87796f	-0.066149585
13	0xbd5ccca0	-0.053906083
14	0xbe6a8ab1	-0.22904469
15	0x3ecdcd65	0.40195766
16	0xbe468c6e	-0.19389507
17	0xbf125f9a	-0.57177126
18	0x3d3f0c81	0.046642784
19	0xbb573268	-0.003283644
20	0x3ece4c94	0.402928
21	0xbe986307	-0.29763052
22	0x3f4aa4b4	0.7915757
23	0x3dbff258	0.09372395
24	0x3eee1440	0.46499825
25	0x3e1d0216	0.15332827
26	0x3f340b66	0.7032989
27	0xbe68a483	-0.22719006
28	0x3ede829e	0.43459028
29	0xbed00092	-0.40625435
30	0x3e927c65	0.2861053
31	0xbea45023	-0.3209239
32	0xbeb9d826	-0.3629772
33	0xbe756e18	-0.23967779
34	0xbf3a9fc7	-0.7290005
35	0x3edb26b2	0.4280296
36	0x3e539285	0.20661362
37	0xbed89081	-0.42297748
38	0xbe6c6352	-0.23084763
39	0x3e89df68	0.26928258
40	0xbed0d901	-0.4079056
41	0x3c9699bc	0.018383853
42	0xbe4d6907	-0.20059596
43	0x3f2facf5	0.68623286
44	0xbf14d872	-0.5814277
45	0x3f46896f	0.7755346
46	0xbe58473b	-0.21120922
47	0x3db7e6a0	0.08979535
48	0xbce9f6ab	-0.028560003
49	0x3f07a31e	0.5298327
50	0x3f44058c	0.76570964
51	0x3e8776fd	0.26457968
52	0xbd4009c7	-0.046884324
53	0x3e932527	0.28739282
54	0x3e7292b4	0.23688775
55	0xbe103831	-0.14083935
56	0x3f30ab47	0.6901135
57	0x3ec41b32	0.38301998
58	0x3f1a1d52	0.6020099
59	0x3e82a279	0.25514582
60	0xbd36b03d	-0.044601668
61	0xbe075b34	-0.13218385
62	0x3f045666	0.51694334
63	0x3e4b4c3b	0.19853298
64	0x3f061630	0.52377605
65	0x3e7a13d6	0.2442163
66	0x3dc63c29	0.096794434
67	0xbeb2f5d7	-0.34953186
68	0x3eda2fcf	0.426146
69	0xbe89df88	-0.26928353
70	0xbd68ce6c	-0.056837484
71	0xbdddd255	-0.10831133
72	0xbdc04b4f	-0.09389364
73	0xbed132eb	-0.4085916
74	0xbbfc6285	-0.007702174
75	0x3ed101fa	0.4082182
76	0x3ecd4f10	0.40099382
77	0xbe191acf	-0.14951633
78	0xbe11a874	-0.14224416
79	0x3ea7d3a9	0.3277867
80	0x3ec4cd1b	0.38437733
81	0xbec39646	-0.38200587
82	0x3dd16245	0.102238216
83	0xbe19ba2a	-0.15012422
84	0xbdcede39	-0.10100979
85	0xbe95ce75	-0.29259077
86	0x3f2fbf7b	0.6865155
87	0xbec25143	-0.37952623
88	0x3ecfdf40	0.40600014
89	0x3da7cc5d	0.08193276
90	0xbe8a2da1	-0.26987937
91	0xbe787bd8	-0.24265993
92	0xbea9490a	-0.33063537
93	0x3dddb33b	0.10825201
94	0xbf273467	-0.65314335
95	0x3f01ea57	0.507482
96	0xbe8ff26c	-0.2811464
97	0xbf08cc10	-0.53436375
98	0xbe296572	-0.16542605
99	0x3d08b163	0.033372294
100	0xbe0d8c43	-0.13823037
101	0x3f470453	0.77740973
102	0x3e8dbbd8	0.27682376
103	0x3d7403a2	0.059573777
104	0xbbd44ecf	-0.0064791213
105	0xbb29a564	-0.0025885934
106	0x3e25f923	0.1620832
107	0x3ef464aa	0.4773305
108	0xbe2a845d	-0.16652055
109	0x3f6383c3	0.8887293
110	0x3aa2909c	0.0012402716
111	0x3f48aeb5	0.7839158
112	0x3f0e16b5	0.555034
113	0x3f1b1ffd	0.60595685
114	0x3ec0ce9d	0.37657633
115	0x3ebe9202	0.3722077
116	0xbdc9abde	-0.09847234
117	0x3f3a7cdd	0.72846776
118	0x3f15fd27	0.58589405
119	0xbba7f7cc	-0.0051259752
120	0xbea451d3	-0.32093677
121	0x3f19c78d	0.60070115
122	0xbe214daf	-0.1575229
123	0x3e639556	0.22224936
124	0x3ed58d29	0.4170926
125	0x3dc1c796	0.09461896
126	0xbe9a3987	-0.30122015
127	0x3e818aac	0.2530111
128	0xbe4444ea	-0.19166914
129	0x3f14758d	0.5799187
130	0xbd98d0ab	-0.07461675
131	0x3f0e3f22	0.55565083
132	0x3f143010	0.5788584
133	0x3eb2bc7a	0.3490942
134	0xbe12017c	-0.14258379
135	0xbe14f1dd	-0.14545389
136	0xbdbf6d97	-0.093470745
137	0x3eeb8fa9	0.46008042
138	0x3f2459b0	0.6419935
139	0xbe5f18c9	-0.21786799
140	0x3ed0ec52	0.40805298
141	0x3c6cd129	0.014454165
142	0x3f058c22	0.5216695
143	0xbd7463a6	-0.059665345
144	0xbd921359	-0.071325965
145	0xbe1f28d9	-0.15542926
146	0x3eac52b5	0.3365685
147	0x3f37d488	0.7180867
148	0x3f0d16c6	0.55112875
149	0x3f153799	0.5828796
150	0xbe137f7b	-0.14404099
151	0x3e1f533d	0.15559097
152	0x3f3340da	0.7002083
153	0x3e923781	0.2855797
154	0x3e33cf1f	0.17559479
155	0x3edc8442	0.43069655
156	0xbe4e38c9	-0.2013885
157	0x3ea12fb2	0.314817
158	0x3ea9e209	0.33180264
159	0xbd4ad1f4	-0.049516633
160	0x3efdd19a	0.49573976
161	0xbeb42d8f	-0.35191008
162	0x3eed5b83	0.4635888
163	0xbec3ba08	-0.38227868
164	0x3e5c53cd	0.21516342
165	0x3dd6b54a	0.10483797
166	0x3e61da77	0.22055994
167	0xbdc5b70b	-0.09654053
168	0x3e944b82	0.28963858
169	0xbe270085	-0.16308792
170	0x3e50280d	0.20327778
171	0xbead471d	-0.33843318
172	0x3e005a57	0.12534462
173	0xbeb83065	-0.35974422
174	0x3e838e2f	0.25694415
175	0x3f08b7f0	0.53405666
176	0xbea3146d	-0.3185152
177	0xbeb28792	-0.34869057
178	0xbe599266	-0.21247253
179	0x3cfa063a	0.030520547
180	0xbe8b6faf	-0.27233645
181	0xbeaf8f21	-0.34288886
182	0xbc3952fa	-0.011311287
183	0x3f2c108f	0.67212766
184	0x3f2cf8df	0.6756725
185	0x3f41a867	0.75647587
186	0xbf3dec84	-0.7418902
187	0xbc593d82	-0.0132592935
188	0xbe1d5fc4	-0.15368563
189	0xbee10907	-0.439522
190	0x3f5a5358	0.8528342
191	0xbea71926	-0.32636374
192	0xbe590bd6	-0.21195921
193	0xbe7d06c9	-0.2470962
194	0xbecea6b5	-0.40361562
195	0xbed7b37b	-0.4212912
196	0x3f22b417	0.63556045
197	0xbf03231d	-0.51225454
198	0xbe8ef4db	-0.27921185
199	0x3ef5d589	0.48014477

sequential_2/dense_8/MatMul f4 [3, 10]
0	0xbf28c957	-0.6593222
1	0x3f4b545b	0.7942559
2	0x3f1b125c	0.6057489
3	0x3f3fecef	0.74970907
4	0xbf05d419	-0.5227676
5	0xbf911526	-1.1334579
6	0xbe517f8c	-0.20458812
7	0xbf8484fa	-1.0353081
8	0xbd7dde7d	-0.06197976
9	0x3f3a86bf	0.72861856
10	0x3f401139	0.7502628
11	0x3f72476a	0.9464022
12	0xbedc4748	-0.43023133
13	0x3f2a3f56	0.6650289
14	0x3f72e6f8	0.9488368
15	0xbf2f2332	-0.6841308
16	0xbf7b0985	-0.980614
17	0x3e9dc161	0.308116
18	0x3e884751	0.2661691
19	0xbf8e8f92	-1.1137564
20	0xbf0d7396	-0.55254495
21	0xbd241ed6	-0.04006847
22	0x3ea2b3df	0.31777856
23	0xbe5d42e8	-0.21607554
24	0xbf827c51	-1.0194188
25	0x3eb2a900	0.34894562
26	0x3f5275fc	0.8221128
27	0x3ec5bf7c	0.38622653
28	0xbf570422	-0.8399068
29	0xbf11fd07	-0.57026714
