model/point_history_classifier/point_history_classifier.tflite (tflite, 6496 bytes, 6 tensors)

dense_5/bias f4 [8]
00000000: 8fb9 023f 5560 b23d e4a0 2b3f 0a51 293e
00000010: 97f4 6dbf 0803 ca3d 41c6 1dbf 1beb 1cbf
0.5106439 0.0870978 0.67042375 0.1653482 -0.9295134 0.098638594 -0.61630636 -0.6129624

dense_4/bias f4 [10]
00000000: c2b3 d2be 0541 8f3d 021e a23f 6d4d 393f
00000010: 8fb6 083f 0b24 073f 5f35 cb3b 3a0f 793f
00000020: 6cca d63f 34fa de3a
-0.4115277 0.06994823 1.2665408 0.7238377 0.5340356 0.5278937 0.0062014307 0.9728886
1.6780524 0.0017011822

dense_3/bias f4 [24]
00000000: 392a 31bd e9b2 dfbc 6bac 19bd 6511 5abd
00000010: cef1 1bbd 108e 15be 530b 1fbd b6c9 49be
00000020: d414 4cbe 6917 50bc df93 dcbd 9f6e 91bc
00000030: 4dca 6dbd 3fe3 18bd 9b00 82bc f643 4dbe
00000040: 7788 03be 7b86 1abe a766 a53e 5d67 15bd
00000050: 99c1 63bc f955 cebd 06b3 28bc 8f5e 86bd
-0.043253157 -0.02730699 -0.037517946 -0.053239245 -0.0380724 -0.14604974 -0.03882916 -0.19705853
-0.1992982 -0.012700894 -0.10770392 -0.017752944 -0.058054257 -0.037326094 -0.01586943 -0.20045456
-0.12845026 -0.15090363 0.3230488 -0.036475528 -0.013901138 -0.10074992 -0.010296589 -0.06561004

sequential_1/dense_3/MatMul f4 [24, 32]
00000000: cd6d 70be a797 8dbe 67c9 19be 2ccc b73d
00000010: 70a9 b7bd 7b22 a9be 4673 4d3f 8ab1 ab3e
00000020: 21e4 483f e286 283e 0be9 8f3f 9ad4 523d
00000030: 5118 973f 93b4 a4bd fa0d 663f 9968 56bd
00000040: 8877 f63e e265 a3be 42fa 823e cf7f 79be
00000050: c6e2 b8bb 19cf bcbe 9c8e debe 3cfc c0be
00000060: 7ab4 1bbf 7328 bfbe 03b0 47bf 1b5d 0dbf
00000070: 2038 6cbf 4523 67bf bdbc 48bf 8669 bcbf
00000080: 206d c83c 1096 a13c 4777 7d3f c610 41bd
00000090: aafc 973f 1359 29be d7b4 233f bdfe 4ebe
000000a0: cc9f e23e 8a60 343e d366 3a3e 0f4f 763e
000000b0: 19b6 013e 43d9 973e d489 7ebe 45d0 6e3e
000000c0: bfbc 773c 1c9c ab3e 886d aabe 5ae5 783e
000000d0: 4d39 32be 9c1e c23d be69 c5bd 947d 903c
000000e0: 6c73 243e 5315 9dbe 437b 3e3f faec 0ebf
000000f0: 93a1 c63f f603 92bf 9704 1140 e5a8 00c0
00000100: 0062 0bba 4e36 b8bd 7376 483f ae8a 323f
00000110: 9101 dd3f 6b50 3c3f a100 ca3f 8ab9 4c3f
00000120: e800 243f a85c 9c3e aaa3 ea3e f1f1 733e
00000130: 8f70 adbc f7f9 c13e fb75 f2be ff35 953e
00000140: 162d 0fbf 6ca8 ac3e 3988 3cbe 4b2b fd3e
00000150: ad45 10bf cba4 5e3e 3bd2 19bf a61e 4f3e
00000160: 8db9 04bf 0ea2 3a3e 83a7 52bf 62a7 843e
00000170: 5261 8bbf c1cf 043f 03f2 d4bf c4fe e73e
00000180: a6b4 0b3e c07f c03b 718b 35bf e6d5 3bbe
00000190: c4f2 7bbf d222 58be 8802 cdbe 1c87 89be
000001a0: a322 31bf e3c9 f4be 42a2 f7be 05fe 50be
000001b0: e14f 0ebf acdc 87be 3e2c b1be 2f85 9bbe
000001c0: eafd 9ebe a096 92be d30b 58be 2d53 6cbe
000001d0: 0b36 90be 50d7 41be 0688 59be 2282 d0bd
000001e0: 502c 94be 19ee 063e 7d6d 05bf 48af e03e
000001f0: 84ed 2fbf 6adf 823f 5af6 98bf fbb3 e03f
00000200: 381b 1d3e 9e4d 883e b3d2 75be b67f bd3f
00000210: 6314 cbbe 8afe 1240 0ab2 2fbe 776c ff3f
00000220: d2d0 50bf b8e6 523f 4c92 f1be 17c4 113f
00000230: 4b74 06bf ba86 403e 4044 3fbf c386 77be
00000240: dc5c 33bf 86a4 81be 0845 ebbe d372 b6be
00000250: 7375 34bf 51a5 04bf ca21 c9be 69ae c2be
00000260: 3769 8cbe f0cd bfbe 52eb 61be 5769 e7be
00000270: bdaa ca3d 132e 06bf d7e3 103e 7a6b 20bf
00000280: 10c0 c53c 866b 8dbe f81e 893f 4343 87bb
00000290: 8a1b d23f 283f 193d c6cf ab3f 5a6a 8a3e
000002a0: 7bb2 903f fc85 0f3f de4e f23e b97f 1c3f
000002b0: 4970 48bd 27b2 1d3f 6fa5 86be f09f 063f
000002c0: 2674 08bf 28d2 053f 8f0a 0abf 4275 e23e
000002d0: a275 5fbf 1d1d 663e d305 47bf 6a4b ab3d
000002e0: d0d0 0fbf 85fc f83c 8e01 0ebf 8eb7 dbbc
000002f0: 2d03 98be 112c 0fbe 5bba a1be a143 a5be
00000300: 4b24 93be dc89 f7bd 6e44 a3be 70a5 7fbf
00000310: 5442 3bbf dcea 91bf a7ca b9be ab04 25bf
00000320: 1575 22bf 9dc8 14bf 7909 acbe 679b a9be
00000330: 09a3 0bbf 6d9b 97be e013 abbe 6d3f 66be
00000340: ec6b 1e3c 8a3d 94bd 702d 013d 69e8 f7bd
00000350: d1b6 b2bd af62 f1bc 8025 1dbe d226 d7bc
00000360: 0047 b1be 6a71 8d3d 99cb 40bf d6e3 393e
00000370: 421d cbbf cd9c a73e 2eb5 0dc0 04fc 033f
00000380: 1097 193d 6bca 91be 2381 00c0 6269 e73f
00000390: 921d c0bf de65 0740 cffc 7cbf c854 db3f
000003a0: e726 a7bc 1155 9d3f 3c23 b53e 28f4 3d3f
000003b0: aa37 1c3f f873 a43e 9bdb 8f3f 846f 4e3e
000003c0: e288 943f 81e7 f3bd 6537 333f 88c7 a6be
000003d0: 601b 3e3f d6e5 94be 9265 023f edb3 a4be
000003e0: 343c ba3e a780 27be 77ce d1bc 6cf4 6fbb
000003f0: ef7b 16bd ce5b 2b3e 5b12 943b 0fd3 613e
-0.23479386 -0.27654764 -0.15018235 0.089744896 -0.089678645 -0.3303412 0.8025402 0.3353389
0.784731 0.16457704 1.1242994 0.051472284 1.1804296 -0.08042254 0.89865077 -0.052345846
0.4813807 -0.31913668 0.25581557 -0.24365161 -0.005642268 -0.36876753 -0.43468177 -0.3769244
-0.6082226 -0.37335548 -0.7800295 -0.5522019 -0.9227314 -0.9028819 -0.7841299 -1.4719703
0.024466097 0.019724876 0.9901013 -0.047135137 1.1873982 -0.16537885 0.63947815 -0.20214362
0.4426254 0.17614952 0.18203287 0.24053596 0.12667121 0.29657945 -0.24857265 0.23321636
0.015120684 0.3351754 -0.3328669 0.2430624 -0.17404671 0.094784945 -0.09639309 0.017638005
0.16059655 -0.30680332 0.7440683 -0.5583035 1.5518059 -1.1407459 2.2659051 -2.0103085
-0.00053170323 -0.08994733 0.7830574 0.6974286 1.7266103 0.7356021 1.5781442 0.7997061
0.6406388 0.3053944 0.4582799 0.23822762 -0.021171836 0.3788602 -0.47355637 0.29142758
-0.5592817 0.33722246 -0.1841134 0.49447092 -0.56356317 0.21742551 -0.6008641 0.20226535
-0.5184563 0.18225881 -0.8228685 0.25908953 -1.0889075 0.5187951 -1.6636356 0.45311558
0.1364313 0.005874604 -0.70915896 -0.18343315 -0.98417306 -0.21107033 -0.40040994 -0.26860893
-0.69193476 -0.47810277 -0.4836598 -0.20409401 -0.55590636 -0.26535547 -0.34604067 -0.3037505
-0.31053096 -0.28630543 -0.2109826 -0.23078604 -0.28166232 -0.18929791 -0.21243295 -0.10181071
-0.28940058 0.13176765 -0.5212019 0.4388373 -0.68721795 1.022443 -1.195018 1.7554926
0.15342414 0.26621717 -0.24006157 1.4804599 -0.3966399 2.2967858 -0.1715776 1.9954976
-0.81568635 0.823833 -0.47181928 0.56939834 -0.525212 0.18801394 -0.74713516 -0.24172501
-0.7006357 -0.25320834 -0.45951104 -0.3563448 -0.70491713 -0.5181475 -0.39283592 -0.3802369
-0.27424023 -0.37461805 -0.22062424 -0.45197555 0.09895847 -0.52414054 0.14149414 -0.62663996
0.024139434 -0.27621096 1.0712576 -0.0041278913 1.6414654 0.037413746 1.3422782 0.27034265
1.1304468 0.5606382 0.47325796 0.6113239 -0.04893521 0.61599964 -0.2629809 0.52587795
-0.5330223 0.522738 -0.5392236 0.44230086 -0.8728887 0.22472043 -0.7774326 0.083639935
-0.56178 0.030393848 -0.5547112 -0.026820924 -0.29689923 -0.13981654 -0.3158749 -0.3227816
-0.28738627 -0.120868415 -0.31888145 -0.9986181 -0.73148084 -1.1399798 -0.36287424 -0.6446025
-0.63459903 -0.5811861 -0.33600977 -0.33126375 -0.54545647 -0.29610768 -0.334136 -0.22485133
0.009669285 -0.072383 0.031537473 -0.121048756 -0.08726276 -0.029466001 -0.15346336 -0.026263628
-0.3462448 0.06906398 -0.75310665 0.18153319 -1.5868304 0.32736817 -2.2141833 0.5155642
0.03749758 -0.28474745 -2.0078819 1.8079035 -1.5009024 2.1155925 -0.98823255 1.7135248
-0.020404292 1.2291585 0.35378444 0.7420068 0.61022437 0.32119727 1.1238893 0.20159727
1.1604273 -0.1190939 0.700064 -0.32574105 0.7426052 -0.290816 0.50936234 -0.32168522
0.36374056 -0.1635767 -0.025611145 -0.0036614193 -0.036739286 0.1673424 0.0045187897 0.22053169

sequential_1/dense_4/MatMul f4 [10, 24]
00000000: ebd7 2bbf 1638 f43e a683 683f b80f e93e
00000010: 9f7d 26bf 184d 943f 136e 80bc de40 713f
00000020: e438 f43f be32 343f 18d1 4fbf 3491 ba3f
00000030: 48f1 6d3f 0b14 b83f 3ab9 74bf 0767 883f
00000040: d64d ddbe f3fb a33f 8917 333f 7b79 b93d
00000050: f7e9 533d 7d67 13be cebf e93e bbe0 b13f
00000060: cf91 8b3f 39da a93f 2da3 e43f ea14 563f
00000070: d1bd a63f 65e5 843f 0b58 de3e b498 8c3f
00000080: fb8b 873f 6c53 913f a7aa a23f 762b e33f
00000090: 0bc5 413f 1b43 f13f dd88 943f 0ced aa3f
000000a0: 0b98 673e 5ba6 cb3f 5b09 483e 477b a13f
000000b0: f1c6 cf3f 4245 f73e 9f38 2240 f8f1 8a3f
000000c0: 1126 75be fdb9 77bd 65f6 abbe a630 e43b
000000d0: 72b7 06bf b863 3ebf de83 9ebe 5c7d ed3e
000000e0: bb61 75be 1476 3d3e 53f9 40bd 8b0a 823d
000000f0: f1a6 3b3f 3ff5 d7ba 21ee 9bbd e5ea bc3e
00000100: 02e2 11be 28cf 823e fb70 f33e e6ad 363e
00000110: 3c8b 153f 505a cebd 1b3f 043f 9ef4 fcbd
00000120: 12c9 27bf 94ca bc3e 81a8 6dbe 309c ffbe
00000130: 5014 8ebe 0fc3 8abe ea2d 1dc0 fc63 32be
00000140: c759 b13e 4620 263d 86ad 2f3e e74e 1bbe
00000150: de4a 293d 8278 723e 1457 d43e 0e9d ac3d
00000160: 971f c9bf a3d7 063e 1b2d cc3e 9bae 413e
00000170: edcf 823f 599c 8fbe 1636 1ebc 262b f53d
00000180: dd7d 673f cb11 a03f 78a3 b53e 903c 893e
00000190: 453d 953f ff83 473c 7f49 223f a4e5 3fbf
000001a0: 8813 093f f3f2 90bf 0dbd 4fbc 5670 dd3d
000001b0: 2e1f e7be ec35 4e3f 4b60 803f 274b 01bf
000001c0: 6d29 f73e 809d 40bf 068c 45bf 08a8 1f3f
000001d0: 7038 5b3f 2844 193f 3db8 97bf bb69 8b3e
000001e0: 21dd 4ebf a9a3 52bf 2c5d b63d 20e7 5c3e
000001f0: 3e51 a2bf 560f a03e 889f 543b e8b6 adbf
00000200: dfd2 143e 31e1 0d3f f261 0ec0 7e61 0e3f
00000210: 008a 0a3f 86f3 f5bb e1f0 1fc0 798c 5ebe
00000220: 7866 77bf 5672 fbbe dcf7 503f 53db 6bbf
00000230: 1bc1 01c0 a962 9cbf cacd 203f 3f52 a1be
00000240: b25b 513f a3de 6d3f 0ae4 033e 6ce1 b73f
00000250: acfa 0fbd 8365 96be 6afc 1b3f bb8d 493f
00000260: 7073 b0be 03fb 83bd 9a00 b13f c350 9e3d
00000270: 01f8 273f 2175 72be 9e02 50be 9042 903f
00000280: 55db 853f de00 8a3f 418f 873e 2d40 9a3f
00000290: 5f89 a0be 2dda 61be aedf 6c3e 8d34 3b3f
000002a0: 7095 bcbe 5db9 843c d0c3 2c3f 3d01 903e
000002b0: 1dde 0f3e 0611 863f b44b e33b b86c e3be
000002c0: ee19 2a3e 0c85 c93e 905a 2fbf a5c7 473f
000002d0: a9f2 963e 1f5f c03d aada 1c3e cf2f 26bf
000002e0: 67d3 5fbe a858 ccbe 9d67 d0bd 725e aabc
000002f0: 2399 053d 1c9f 1b3f 2fdd 053f d7a0 fabd
00000300: d16a d6bf 0cc1 29bf 68f8 29bf 30ee 90bf
00000310: 6c66 6cbf b03b c3bf c381 76bf f488 a8bf
00000320: d089 a0bf 4bcd 0bbf b649 19c0 5a9a 61bf
00000330: 6457 4f3c b3f0 38bf e2e4 7abf 1617 77bf
00000340: fad8 01c0 3b5c 80bf fc97 903d 245b 90bf
00000350: cc34 51bf 12e6 cfbf beca 5fbf bf24 c2be
00000360: 23c3 da3e 1162 d53e 1e1f 603f 4eae 763f
00000370: cf2e ad3e 096d 613f 0950 be3f 6c8b 923f
00000380: d40d 0f3e fe58 6f3f 2996 b13f c7a0 313f
00000390: 92c3 bd3e 4aa1 483e 1374 683e 3560 813f
000003a0: e1dd 943f 6479 973f 726a ff3e f0b7 833e
000003b0: 1704 453e d283 a33f fbcd ec3e 5ee9 b73f
-0.6712634 0.4769904 0.9082588 0.45519805 -0.6503543 1.1586027 -0.015677487 0.94239604
1.9079862 0.70389926 -0.81178427 1.4575562 0.9294629 1.4381117 -0.95595133 1.0656441
-0.43223447 1.2811264 0.69957787 0.09056374 0.0517368 -0.14394946 0.45654148 1.3896707
1.0903872 1.3269721 1.7862297 0.8362566 1.3026677 1.0382506 0.43426546 1.0984101
1.0589594 1.1353583 1.2708329 1.7747638 0.7569129 1.8848604 1.1604267 1.3353591
0.22616594 1.5910143 0.19534819 1.2615746 1.6232587 0.48295027 2.5347059 1.0855093
-0.23940302 -0.060480107 -0.33586422 0.006963807 -0.52623665 -0.7437091 -0.30959982 0.46384704
-0.23963062 0.18502074 -0.047112774 0.06349667 0.7330161 -0.0016476287 -0.07613779 0.3689796
-0.14246371 0.25548673 0.47547135 0.17839774 0.5841558 -0.100758195 0.5165879 -0.123513445
-0.65541184 0.36873305 -0.2320881 -0.4992385 -0.27749872 -0.27101943 -2.4559274 -0.17420954
0.34638807 0.040558122 0.17156038 -0.15166818 0.041331165 0.23678783 0.41472685 0.08428393
-1.5712765 0.13168196 0.39878163 0.18914263 1.0219704 -0.2804897 -0.00965645 0.119711205
0.9042643 1.250543 0.3547628 0.26804018 1.1659323 0.012177466 0.63393396 -0.7495978
0.5354543 -1.1324142 -0.012679351 0.10812442 -0.45140976 0.8055103 1.0029386 -0.505053
0.48273793 -0.75240326 -0.77166784 0.6236577 0.8563299 0.59869623 -1.18531 0.27229103
-0.80806166 -0.82280976 0.0890449 0.21572542 -1.2681043 0.312617 0.003244372 -1.3571444
0.14533566 0.5542174 -2.224728 0.5561751 0.5411682 -0.007505837 -2.499077 -0.21733274
-0.9664073 -0.4911067 0.81628203 -0.9213154 -2.0274112 -1.2217609 0.6281401 -0.3150806
0.8178054 0.9291784 0.12879959 1.4365668 -0.03515117 -0.29374322 0.6093203 0.7873189
-0.34463072 -0.06444361 1.3828309 0.07730248 0.656128 -0.23677494 -0.20313498 1.1270313
1.045756 1.0781515 0.26476482 1.2050835 -0.31354806 -0.22055884 0.23132202 0.7312706
-0.36832762 0.01620167 0.67486286 0.28125945 0.14049573 1.0473945 0.0069365148 -0.44418883
0.16611454 0.3935932 -0.6849756 0.7803901 0.2948201 0.09393143 0.15317789 -0.649167
-0.21857987 -0.3991139 -0.10176013 -0.020796988 0.032616746 0.60789657 0.52290624 -0.12237709
-1.6751348 -0.6631019 -0.6639466 -1.1322689 -0.92343783 -1.525259 -0.9629175 -1.3166795
-1.2542057 -0.5461013 -2.395124 -0.88126147 0.012655113 -0.7224228 -0.980055 -0.965196
-2.0288682 -1.0028147 0.07060239 -1.1277814 -0.81721187 -1.6242087 -0.87418735 -0.3791866
0.42727003 0.4167638 0.8754748 0.9635972 0.33824775 0.88057 1.4868175 1.1448798
0.13970119 0.93495166 1.387395 0.6938595 0.3706327 0.19592777 0.22700529 1.0107485
1.1630212 1.183392 0.498859 0.2572627 0.19239841 1.2774603 0.462509 1.4368093

sequential_1/dense_5/MatMul f4 [8, 10]
00000000: 84e5 97c0 3583 e0c0 a0f3 89bb 951e 823f
00000010: ac51 68c0 6cf9 dc3f a920 91c0 88bc af3e
00000020: 0723 0c40 724a 83c0 2700 b53e fa25 603e
00000030: 93ea d93b 6421 a33e 5c1b 8f3f 9886 b73f
00000040: 120c e4bf 85a4 993f 9841 fabf 612b 40bf
00000050: 9dbe 50bf 241e fa3e ae75 c73f 7106 03be
00000060: 90d9 11bf ec1a 96bf 526e f8bb 2528 2bbf
00000070: 2a85 b3bf 6216 2d3f d269 403f 8b84 103d
00000080: 7990 593e 264f 08be e10e 383f e88b 8bbe
00000090: f0c6 883e fd71 ea3c 5175 18bf e16c 4d3e
000000a0: 6cac 393f 5fa4 af3e d779 83be b9e9 82bf
000000b0: 30f2 963e e552 0d3f e151 093f a395 afbe
000000c0: 28d4 b93e fbe5 1cbe a648 febe d507 1b3f
000000d0: 6af2 5fbc 6c3e ec3e 06a3 8a3f 9686 ab3d
000000e0: 525e 863e f828 82bf 6d97 db3d af22 00c0
000000f0: 9bf8 0b3f 182f 8e3e aead 18bf baff 873f
00000100: f4ea fc3e 50b5 71bf 6134 89be 174d 95bf
00000110: d319 553f 66e0 ea3e 62af f1be 06b8 c53e
00000120: 1799 7cbf 24da 44bf c249 d3bb 4966 0b3f
00000130: 9f65 d63e 898f 963e f2ea 003f a4be 933e
-4.746767 -7.0160165 -0.0042099506 1.0165583 -3.6299849 1.7263618 -4.535237 0.34323525
2.189638 -4.1028376 0.3535168 0.21889487 0.006650278 0.31861413 1.1180224 1.433795
-1.7816184 1.2003332 -1.9551268 -0.7506619 -0.8154085 0.4885112 1.5582788 -0.12795426
-0.569726 -1.1726966 -0.0075815106 -0.6685813 -1.4025013 0.6761228 0.7516147 0.035282653
0.21246518 -0.13311443 0.71897703 -0.27255177 0.26714277 0.028618807 -0.5955401 0.20061065
0.7252872 0.34305093 -0.25678894 -1.0227576 0.2948165 0.5520461 0.5364056 -0.3429385
0.36294675 -0.15322106 -0.496648 0.60558826 -0.013668636 0.46141374 1.0831001 0.083752796
0.26243836 -1.0168753 0.107222416 -2.002117 0.54676217 0.27770305 -0.59640014 1.0624917
0.49398005 -0.94417286 -0.26797774 -1.1664151 0.8324253 0.45874327 -0.4720412 0.3861696
-0.98671097 -0.76895356 -0.0064480016 0.5445295 0.41874406 0.29406384 0.503585 0.28856385
