model/point_history_classifier/point_history_classifier.tflite (tflite, 6304 bytes, 6 tensors)

dense_2/bias f4 [4]
0	0x3f34931e	0.70536983
1	0xbec23e68	-0.37938237
2	0x3ef6cb36	0.48201913
3	0xbf2ac34e	-0.6670426

dense_1/bias f4 [10]
0	0x3e261f32	0.16222838
1	0x3aeb83b1	0.0017968324
2	0x3e10d5db	0.1414408
3	0x3f6510d2	0.8947879
4	0x3ecd3ae9	0.40084007
5	0xbd06d10d	-0.03291421
6	0x3a66f9d3	0.00088110304
7	0x3c9a0a61	0.018803777
8	0xb9a2c052	-0.00031042338
9	0xbeb5db6d	-0.3551897

dense/bias f4 [24]
0	0xbd514dc6	-0.05109956
1	0xbd31853d	-0.043339957
2	0xbd59a3a4	-0.053134575
3	0xbd08dce2	-0.033413775
4	0xbcd9d680	-0.02659154
5	0xbd5cae17	-0.053876963
6	0xbd2ab997	-0.0416809
7	0xbd47d242	-0.0487845
8	0xbdb93bcf	-0.09044611
9	0xbdcbb266	-0.09946136
10	0xbe1ef05c	-0.15521377
11	0xbdca6427	-0.09882384
12	0xbd75efa9	-0.06004301
13	0xbd3e6d1a	-0.046490766
14	0xbe20a0a0	-0.15686274
15	0xbe191f4c	-0.14953345
16	0xbe0af70e	-0.13570806
17	0xbdc44c56	-0.095848724
18	0xbd141d01	-0.036160473
19	0xbd1e43b9	-0.038638804
20	0xbdc33ff5	-0.09533683
21	0xbd11dee9	-0.035612974
22	0xbd6d7618	-0.05797395
23	0xbdacc3db	-0.08435794

sequential/dense/MatMul f4 [24, 32]
0	0x3e2d98bc	0.16952795
1	0xbe6738be	-0.22580239
2	0x3f6c6521	0.9234181
3	0x3e0f9303	0.14020924
4	0x3eef7a49	0.46772984
5	0xbeb172b6	-0.3465783
6	0x3ef3dd05	0.47629562
7	0x3dbb72cb	0.091527544
8	0x3f16a858	0.5885062
9	0x3d94ada2	0.0725968
10	0xbd83070b	-0.06397828
11	0xbd31046a	-0.0432171
12	0xbe5dc0ce	-0.2165558
13	0x3cab8a93	0.0209401
14	0xbe952dc7	-0.29136488
15	0x3eca3a4f	0.3949761
16	0xbec439e2	-0.3832541
17	0x3e27986a	0.16366735
18	0xbc07e123	-0.008293423
19	0x3b8f3f29	0.004371543
20	0x3e083346	0.1330081
21	0x3dab1eb6	0.08355467
22	0x3e128798	0.14309537
23	0xbe14ed07	-0.14543544
24	0x3f12d2e0	0.5735302
25	0xbd256759	-0.040381763
26	0x3f789cbd	0.97114164
27	0x3e6df8f3	0.23239498
28	0x3f92ba63	1.1463131
29	0x3f1c1a55	0.6097768
30	0x3fd43d70	1.6581249
31	0x3f9d0d75	1.2269732
32	0x3e28deac	0.16491193
33	0x3e9cf8f4	0.30658686
34	0xbfa0270b	-1.2511915
35	0xbee36483	-0.44412622
36	0xbf21c2d1	-0.6318789
37	0xbe9fe575	-0.3122975
38	0xbe82aa61	-0.25520614
39	0xbd61db77	-0.05514094
40	0xbe4c2580	-0.1993618
41	0xbdbe5969	-0.092943974
42	0x3ea9827c	0.33107364
43	0xbdd712f9	-0.105016656
44	0x3ea1b179	0.31580713
45	0xbe27508f	-0.16339324
46	0x3efc7e0c	0.49314916
47	0xbdd0b48a	-0.10190685
48	0x3eac2604	0.33622754
49	0xbdc4a337	-0.09601443
50	0x3e8d945a	0.27652246
51	0xbe4a1dcf	-0.19737934
52	0x3d98398f	0.074328534
53	0xbe09d779	-0.13461103
54	0xbda6b044	-0.08139089
55	0xbde1c108	-0.11023146
56	0xbf237d52	-0.638631
57	0xbe26e798	-0.16299284
58	0xbf5aaa52	-0.8541614
59	0xbda3dac4	-0.080007106
60	0xbf7314ee	-0.9495381
61	0xbdc28ac0	-0.09499121
62	0xbfc97cf9	-1.5741264
63	0xbe4bb3be	-0.19892785
64	0x3e53c83c	0.20681852
65	0x3e857434	0.26065218
66	0x3ec7a6e1	0.38994506
67	0xbf547912	-0.8299724
68	0x3ee04d83	0.43809137
69	0xbf0e02e5	-0.55473167
70	0x3ea15ac0	0.3151455
71	0xbf5444ff	-0.8291778
72	0x3f510da6	0.8166145
73	0xbeee1942	-0.46503645
74	0x3e7fe3cf	0.24989246
75	0xbed0ba7f	-0.40767285
76	0x3d1dc1f1	0.038515035
77	0xbed9c0c1	-0.42529872
78	0x3e052fa2	0.13006452
79	0xbe4e07e8	-0.20120203
80	0x3bc007ff	0.005860328
81	0xbe3f9f91	-0.18713214
82	0xbdb7aa97	-0.08968084
83	0xbdc9cf5f	-0.09854006
84	0xbdc1817d	-0.09448526
85	0xbd6012a8	-0.054705292
86	0xbf20263f	-0.6255836
87	0xbe14cefb	-0.14532082
88	0xbf2aa771	-0.66661745
89	0xbe18eeb0	-0.14934802
90	0xbf30c989	-0.6905752
91	0xbe5ba0b6	-0.21448025
92	0xbf54bf1f	-0.8310413
93	0x3bbdd07b	0.005792675
94	0xbfbb461d	-1.4630772
95	0xbec482df	-0.38381097
96	0xbc00ba40	-0.007856905
97	0x3d9b07e4	0.075698644
98	0x3f8dc759	1.1076461
99	0x3fc0adaa	1.5052998
100	0x3f785a6d	0.9701298
101	0x3fa89200	1.3169556
102	0x3e5b37ce	0.21408007
103	0x3f89332b	1.071874
104	0x3cf648b4	0.030063964
105	0x3f62ca8e	0.88590324
106	0xbe32ee7c	-0.17473787
107	0x3f41f8ad	0.75770074
108	0xbea79c11	-0.32736257
109	0x3ec21fa9	0.3791478
110	0xbf40c31f	-0.7529773
111	0x3f02e162	0.51125157
112	0xbf4d456e	-0.80184066
113	0x3eb5bca3	0.3549548
114	0xbf6fb9b9	-0.93642765
115	0x3db4d7f6	0.08830254
116	0xbf40dbc4	-0.75335336
117	0x3e502bbd	0.20329185
118	0xbef9e7fe	-0.48809808
119	0xbec98286	-0.39357394
120	0xbf11a15b	-0.56886834
121	0xbea0aa63	-0.31379995
122	0xbe25720b	-0.16156785
123	0xbeb826c9	-0.3596709
124	0x3ea60c4f	0.32431266
125	0xbed217ba	-0.41033727
126	0x3e0cc0a5	0.13745363
127	0xbe7ba0c0	-0.2457304
128	0xbd5ff580	-0.054677486
129	0x3e8cc560	0.27494335
130	0x3f14c81b	0.58117837
131	0xbf869652	-1.0514624
132	0x3f48793b	0.78309983
133	0xbf8b2aa2	-1.0872386
134	0x3fa49a5a	1.2859604
135	0xbf7131b0	-0.9421644
136	0x3fa593fa	1.2935784
137	0xbf03344d	-0.5125168
138	0x3f5bbbdc	0.85833526
139	0xbe32ae01	-0.1744919
140	0x3f5d59e7	0.86465305
141	0x3e82abe5	0.2552177
142	0x3f10a496	0.5650114
143	0x3ea77362	0.32705218
144	0x3eeb5001	0.45959476
145	0x3f02aabd	0.51041776
146	0xbd69b14a	-0.05705384
147	0x3f1b8503	0.60749835
148	0xbcac55ce	-0.021037009
149	0x3f319fc9	0.6938444
150	0xbe96a1b9	-0.2942026
151	0x3f113a6a	0.5672976
152	0xbf2a3ac2	-0.6649591
153	0x3eb2a3a1	0.34890464
154	0xbf49ea33	-0.78872985
155	0x3e88e8b8	0.2674005
156	0xbf4d1d70	-0.80123043
157	0x3e3b1c20	0.18272448
158	0xbf1b33b3	-0.6062576
159	0xbca2c0ee	-0.019867387
160	0xbe8a90f1	-0.27063707
161	0x3e48ef64	0.1962257
162	0x3f8b47ea	1.0881321
163	0xbf349329	-0.7053705
164	0x3e39273a	0.1808137
165	0xbf7fb3e2	-0.99883854
166	0xbecfb893	-0.40570506
167	0xbf700c74	-0.93769
168	0xbecf457f	-0.4048271
169	0xbf670970	-0.90248775
170	0xbf2da840	-0.67834854
171	0xbf27993f	-0.6546821
172	0xbf3f9403	-0.7483522
173	0xbf1b59c7	-0.60683864
174	0xbf14eb1c	-0.5817125
175	0xbe9abef8	-0.30223823
176	0xbf529d4d	-0.8227127
177	0xbe7f251c	-0.249165
178	0xbf2cdd7b	-0.6752545
179	0xbc5b949e	-0.013402132
180	0xbef1e31c	-0.47243583
181	0x3e958702	0.29204565
182	0xbeecc30b	-0.46242556
183	0x3f17fce8	0.5937028
184	0xbeb474fc	-0.35245502
185	0x3f0fb23a	0.5613133
186	0xbedefe00	-0.43553162
187	0x3f126711	0.57188517
188	0xbe9e4541	-0.30912212
189	0x3f0693e9	0.52569443
190	0xbcd50d70	-0.026007384
191	0x3f19193f	0.5980415
192	0xbe1d10e4	-0.15338475
193	0x3e6b9570	0.23006225
194	0xbf8d1295	-1.1021296
195	0xbf373206	-0.71560705
196	0xbf5ef485	-0.8709186
197	0xbf4add98	-0.79244375
198	0xbf27967c	-0.65463996
199	0xbe8f6f8d	-0.28014794
200	0xbef22d87	-0.4730036
201	0xbe212084	-0.1573506
202	0xbee0a71e	-0.438775
203	0x3bf428b8	0.007451143
204	0xbe11f857	-0.1425489
205	0xbe532a93	-0.2062171
206	0xbc571eb4	-0.013129879
207	0xbeecbabc	-0.46236217
208	0x3dfeeddd	0.124477126
209	0xbec455bf	-0.3834667
210	0x3eb9784e	0.36224598
211	0xbebd1fb6	-0.36938256
212	0x3eb0156a	0.34391338
213	0xbefd8556	-0.4951579
214	0x3ebcf38d	0.36904564
215	0xbec01e41	-0.37523082
216	0x3f032f6e	0.51244247
217	0xbcff8380	-0.031190634
218	0x3ee20dc1	0.44151118
219	0xbec46845	-0.383608
220	0x3f805264	1.0025144
221	0xbee14ea9	-0.44005325
222	0x3fb7d7ab	1.4362692
223	0xbf0a3686	-0.53989446
224	0x3e8bcc72	0.27304417
225	0x3e0d7a5e	0.1381621
226	0xbf4a8f9d	-0.79125386
227	0x3f9c978d	1.223375
228	0xbf0fe02b	-0.5620143
229	0x3fa8c0c9	1.3183833
230	0xbf276d72	-0.65401375
231	0x3f3de097	0.7417082
232	0xbf37aae1	-0.71745116
233	0x3f01cf37	0.5070681
234	0xbf462a4f	-0.7740831
235	0x3ef19f2d	0.47191754
236	0xbf64e55d	-0.8941248
237	0x3d73d27f	0.059526917
238	0xbf7035ff	-0.9383239
239	0xbeeaee68	-0.45885015
240	0xbf20df6c	-0.62840915
241	0xbf0ab8bf	-0.5418815
242	0xbe9d9645	-0.3077871
243	0xbf01beb6	-0.50681627
244	0xbd384c01	-0.044994358
245	0xbf275768	-0.65367746
246	0x3cd8ac2e	0.02644929
247	0xbeae7805	-0.34075943
248	0x3e723722	0.23653844
249	0xbf3315b7	-0.6995501
250	0x3e7dd715	0.24789079
251	0xbef1b564	-0.47208703
252	0x3ee6746f	0.45010707
253	0xbe6fb981	-0.23410608
254	0x3f1740d6	0.59083307
255	0xbe30b6a2	-0.17257169

sequential/dense_1/MatMul f4 [10, 24]
0	0x3ec01e61	0.37523177
1	0x3f32cbcd	0.69842225
2	0x3f70b646	0.9402813
3	0x3f5e8fea	0.86938345
4	0x3ce8b028	0.02840431
5	0x3f48134f	0.7815446
6	0x3efd4c12	0.494721
7	0x3f00939c	0.50225234
8	0x3fa1afae	1.2631738
9	0x3fe3bc43	1.7791828
10	0x3fd871ac	1.690969
11	0x3e957bfa	0.2919615
12	0x3f911c51	1.1336766
13	0x3e5cfeeb	0.21581618
14	0x3f2c1d40	0.6723213
15	0x3fa99361	1.3248101
16	0x3f9bb444	1.2164388
17	0xbdac2d31	-0.08407057
18	0x3f158c3e	0.5841712
19	0x3f0d2e6f	0.5514898
20	0x3e2a422f	0.1662681
21	0x3f30d58c	0.69075847
22	0x3f75088f	0.95716184
23	0x3faf5eed	1.3700844
24	0x3eae5d79	0.3405569
25	0xbe068ec2	-0.13140395
26	0x3e69442f	0.22779916
27	0xbf79d96f	-0.975974
28	0x3f7dbffd	0.99121076
29	0x3f39b135	0.7253602
30	0x3f10281d	0.5631121
31	0x3db9154a	0.09037264
32	0x3f063ef8	0.5243983
33	0xbfba3fe1	-1.4550744
34	0xbf1245d7	-0.5713782
35	0x3efc66f8	0.4929731
36	0xbf36892a	-0.71303046
37	0xbe6c8960	-0.2309928
38	0xbec803bf	-0.39065358
39	0x3eacbf20	0.33739567
40	0xbf1adf1b	-0.6049668
41	0x3f3ee4d3	0.7456791
42	0x3f47eaa0	0.78092384
43	0xbeff9dca	-0.4992507
44	0x3e9967a8	0.29961896
45	0x3e5976f8	0.21236789
46	0xbfe129c7	-1.7590874
47	0x3ea1396f	0.3148913
48	0x3f3cde99	0.7377716
49	0x3fa9180b	1.3210462
50	0x3fa202e5	1.2657133
51	0x3e347d12	0.17625836
52	0x3e71d430	0.236161
53	0x3f805dca	1.0028622
54	0x3e867c34	0.26266634
55	0x3eedfe90	0.46483278
56	0x3fe7ad0f	1.8099688
57	0x3ff86363	1.940533
58	0x3fd26d17	1.6439542
59	0x3e36fa1f	0.17868851
60	0x3f9792ca	1.1841671
61	0x3e9e43d5	0.30911127
62	0x40105880	2.2554016
63	0x3fc4c22e	1.5371759
64	0x3fbd243f	1.4776686
65	0x3e9b6b15	0.30355135
66	0x3de697bd	0.112594105
67	0x3e6f0738	0.23342597
68	0x3f1df2db	0.61698693
69	0x3fa46974	1.2844682
70	0x3f536078	0.82569075
71	0x3fcdaf24	1.6069074
72	0xbf7a9f83	-0.97899646
73	0xc0380d74	-2.875821
74	0xc030b257	-2.760885
75	0xc04a816b	-3.164149
76	0xc02a28e0	-2.6587448
77	0xc0441e7b	-3.0643604
78	0xc04b6454	-3.1779985
79	0xc018131a	-2.3761659
80	0xc02261fa	-2.53723
81	0xc02bdd71	-2.6853907
82	0xc028df69	-2.6386359
83	0xc01e335f	-2.4718854
84	0xc03807d3	-2.8754776
85	0xbebeed75	-0.3729054
86	0xc0285d53	-2.630696
87	0xc0203d07	-2.5037248
88	0xc046de41	-3.1073153
89	0xc030bd1a	-2.7615418
90	0xc01ef1d2	-2.4835095
91	0xc055d46c	-3.3410902
92	0xc048cd48	-3.1375294
93	0xc04e737e	-3.225799
94	0xc04781d1	-3.1172984
95	0xc028f2cc	-2.6398191
96	0xbd9e225f	-0.077213995
97	0x3eac5a11	0.33662465
98	0x3e8ca4dd	0.2746953
99	0x3ed70771	0.41997865
100	0xbfb952dc	-1.4478412
101	0xbdbf2f0d	-0.09335146
102	0x3dd58fb1	0.104277976
103	0x3eb60348	0.35549378
104	0x3db2217f	0.08697795
105	0xbf5f7306	-0.87284887
106	0xbf49aa45	-0.78775436
107	0x3f37d0de	0.7180308
108	0xbee06edb	-0.43834576
109	0x3ef26255	0.47340646
110	0xbf224cb8	-0.63398314
111	0xbee62e91	-0.44957402
112	0xbea10492	-0.314488
113	0x3f9c96f2	1.2233565
114	0xbfdaa0ed	-1.7080361
115	0x3c1b9e85	0.009498243
116	0x3f49cf26	0.7883171
117	0x3e8498ce	0.2589783
118	0xbeb4b647	-0.35295317
119	0xbd0dab63	-0.034587275
120	0xbe9838b8	-0.29730773
121	0xbf1275c8	-0.5721097
122	0xbeb53fe6	-0.35400313
123	0x3f73b532	0.9519836
124	0xbed717ca	-0.42010337
125	0xbe24a982	-0.16080287
126	0x3e8b3d6f	0.27195308
127	0x3f24211a	0.6411301
128	0xbf815b80	-1.0106049
129	0x3ebf87ba	0.3740824
130	0xbef54812	-0.47906548
131	0xbe65495b	-0.22391264
132	0x3d4270c6	0.04747083
133	0x3ea2ecf2	0.318214
134	0xbebf6162	-0.37378985
135	0xbf1650fb	-0.58717316
136	0xbf5ebac2	-0.8700372
137	0xbf22aad7	-0.6354193
138	0x3f5ddff0	0.86669827
139	0x3f3d267c	0.7388685
140	0x3f3817e7	0.7191147
141	0x3e1070ae	0.14105484
142	0x3f242cb1	0.64130694
143	0xbf9e367c	-1.2360377
144	0x3f0c3e38	0.5478244
145	0xbf013ad5	-0.50480396
146	0xbe9f57f2	-0.31121784
147	0x3e85b796	0.26116627
148	0x3fb1d55b	1.3893236
149	0xbe133490	-0.1437552
150	0x3f3ecf1d	0.7453478
151	0x3f45a4b8	0.77204466
152	0xbf2de8d2	-0.6793338
153	0xbe2a9e49	-0.16661943
154	0xbe025151	-0.12726332
155	0x3f9bbebd	1.2167584
156	0x3ef0e632	0.47050625
157	0xbedfe73d	-0.43731108
158	0xbe96a608	-0.29423547
159	0xbe86baa1	-0.26314262
160	0xbe60528c	-0.21906489
161	0x3f654790	0.8956232
162	0x3f981f28	1.1884508
163	0x3f5ad816	0.8548597
164	0x3f1a7124	0.6032889
165	0x3e2b84d1	0.16749884
166	0x3a0ba608	0.000532717
167	0xbf09a136	-0.53761613
168	0x3f34442e	0.70416534
169	0x3f8b51dc	1.0884356
170	0x3fba60f6	1.456084
171	0x3f5f7b4e	0.87297523
172	0x3e40f8ee	0.18844959
173	0x3f9eb7de	1.2399862
174	0x3f472faa	0.77807105
175	0x3f86ecb8	1.0540991
176	0x3fc2b0f9	1.5210258
177	0x3f9f22aa	1.2432454
178	0x3f800fe6	1.0004852
179	0x3f3cbc1c	0.7372453
180	0x3f4c89c8	0.7989774
181	0x3f15c78f	0.5850763
182	0x3f090e0d	0.53537065
183	0x3f9ddcc4	1.2332997
184	0x3fbed28c	1.4908004
185	0x3f718626	0.9434532
186	0x3f6190d0	0.8811159
187	0x3f3c09aa	0.73452246
188	0x3f54ec34	0.8317292
189	0x3fba37a4	1.454823
190	0x3f8ae258	1.0850325
191	0x3fa16db8	1.2611609
192	0x3f226278	0.634315
193	0x3f2d469e	0.6768588
194	0x3ebec45e	0.3725919
195	0x3f302589	0.68807274
196	0x3fc01eae	1.5009363
197	0x3eecd758	0.46258044
198	0x3f83e3ca	1.0303891
199	0x3f6c2862	0.9224912
200	0xbe721713	-0.23641615
201	0xbe4688af	-0.19388078
202	0xbe765819	-0.24057044
203	0x3f0d848f	0.55280393
204	0x3ec0d46b	0.37662062
205	0x3ec73936	0.38910836
206	0x3f00bf41	0.5029183
207	0x3d732ae6	0.059367083
208	0xbdb70028	-0.08935577
209	0x3f9016ce	1.125696
210	0x3fb05329	1.3775378
211	0x3f8c23aa	1.0948384
212	0x3fb37c67	1.402234
213	0x3f2f8bb0	0.6857252
214	0x3d053e15	0.03252991
215	0xbe5b1613	-0.2139514
216	0x3f0e29fd	0.5553282
217	0x3edc2566	0.42997283
218	0x3eeb6647	0.4597647
219	0xba4d2b1e	-0.00078265544
220	0x3e0e1b39	0.13877572
221	0x3f3966a3	0.72422236
222	0x3ecff95a	0.40619928
223	0x3d94d19a	0.07266541
224	0x3eace380	0.3376732
225	0x3ef74024	0.48291123
226	0x3ee682f3	0.4502178
227	0x3e86943c	0.2628497
228	0x3f029444	0.51007485
229	0xbe40368a	-0.18770805
230	0x3f9a5578	1.2057333
231	0x3f3189d1	0.69350916
232	0x3f3045ae	0.6885632
233	0x3e471db3	0.19444923
234	0x3e9b0a0a	0.30281097
235	0x3b8aacd3	0.004232028
236	0x3e83b8eb	0.2572702
237	0x3f3fcd25	0.749224
238	0x3f03d8b6	0.5150255
239	0x3e0b611f	0.13611268

sequential/dense_2/MatMul f4 [4, 10]
0	0xc05b1b41	-3.4235384
1	0xc089e1f8	-4.308834
2	0xc07de0dd	-3.9668496
3	0x4032ca0e	2.7935824
4	0x3e1d9599	0.15389098
5	0xc03becfc	-2.9363394
6	0xc047b934	-3.120679
7	0xc07a3768	-3.9096317
8	0xc08c81f5	-4.390864
9	0xbe908e7f	-0.28233716
10	0xbf1bd971	-0.60878664
11	0x3f947349	1.1597682
12	0xbf583363	-0.8445341
13	0xc000a130	-2.009838
14	0x3fb03099	1.3764831
15	0x3fe074b8	1.753562
16	0x3fa0e96d	1.2571236
17	0x3eb8071e	0.3594293
18	0x3f246eb2	0.6423141
19	0xbfab1df6	-1.3368518
20	0x3f46b1a4	0.7761481
21	0x3f5c0dbd	0.8595846
22	0x3eb45916	0.35224217
23	0xc031efbd	-2.7802575
24	0xbfe19763	-1.7624325
25	0x3e55243d	0.20814605
26	0xbf4f48fb	-0.80970734
27	0x3f6d789b	0.92762154
28	0xbf1fa03b	-0.6235387
29	0xbea6ebc7	-0.3260176
30	0x3e8a3fc3	0.2700177
31	0xbeddf24a	-0.43348914
32	0x3e46ea9c	0.19425434
33	0xbfb7c531	-1.4357053
34	0x3f1cdfa5	0.61278754
35	0xbf167e67	-0.58786625
36	0x3f11a084	0.5688555
37	0x3f20253e	0.6255683
38	0x3ee401c1	0.44532588
39	0x3f991eaa	1.1962483
